…
in.img.bin', trn_x_txt='raw_data/train.raw.txt', trn_y='trn_X_Y.txt', tst_x_img='images/test.img.bin', tst_x_txt='raw_data/test.raw.txt', tst_y='tst_X_Y.txt', txt_model='sentencebert', validate=True, validate_after=5, verbose=50000, warm_start=20)
MufinXAttnRankerpp(
  (criterian): CosineEmbeddingLoss(m=0.5, pos_wts=1.0)
  (item_encoder): DataParallel(
    (module): MultiModalRanker(
      (attn_encoder): MultiModalEncoder(
        (txt_encoder): SentenceBert(
          apply_pooler=True
          (features): DistilBertModel(
            (embeddings): Embeddings(
              (word_embeddings): Embedding(30522, 768, padding_idx=0)
              (position_embeddings): Embedding(512, 768)
              (LayerNorm): LayerNorm((768,), eps=1e-12, elementwise_affine=True)
              (dropout): Dropout(p=0.1, inplace=False)
            )
            (transformer): Transformer(
              (layer): ModuleList(
                (0): TransformerBlock(
                  (attention): MultiHeadSelfAttention(
                    (dropout): Dropout(p=0.1, inplace=False)
                    (q_lin): Linear(in_features=768, out_features=768, bias=True)
                    (k_lin): Linear(in_features=768, out_features=768, bias=True)
                    (v_lin): Linear(in_features=768, out_features=768, bias=True)
                    (out_lin): Linear(in_features=768, out_features=768, bias=True)
                  )
                  (sa_layer_norm): LayerNorm((768,), eps=1e-12, elementwise_affine=True)
                  (ffn): FFN(
                    (dropout): Dropout(p=0.1, inplace=False)
                    (lin1): Linear(in_features=768, out_features=3072, bias=True)
                    (lin2): Linear(in_features=3072, out_features=768, bias=True)
                  )
                  (output_layer_norm): LayerNorm((768,), eps=1e-12, elementwise_affine=True)
                )
                (1): TransformerBlock(
                  (attention): MultiHeadSelfAttention(
                    (dropout): Dropout(p=0.1, inplace=False)
                    (q_lin): Linear(in_features=768, out_features=768, bias=True)
                    (k_lin): Linear(in_features=768, out_features=768, bias=True)
                    (v_lin): Linear(in_features=768, out_features=768, bias=True)
                    (out_lin): Linear(in_features=768, out_features=768, bias=True)
                  )
                  (sa_layer_norm): LayerNorm((768,), eps=1e-12, elementwise_affine=True)
                  (ffn): FFN(
                    (dropout): Dropout(p=0.1, inplace=False)
                    (lin1): Linear(in_features=768, out_features=3072, bias=True)
                    (lin2): Linear(in_features=3072, out_features=768, bias=True)
                  )
                  (output_layer_norm): LayerNorm((768,), eps=1e-12, elementwise_affine=True)
                )
                (2): TransformerBlock(
                  (attention): MultiHeadSelfAttention(
                    (dropout): Dropout(p=0.1, inplace=False)
                    (q_lin): Linear(in_features=768, out_features=768, bias=True)
                    (k_lin): Linear(in_features=768, out_features=768, bias=True)
                    (v_lin): Linear(in_features=768, out_features=768, bias=True)
                    (out_lin): Linear(in_features=768, out_features=768, bias=True)
                  )
                  (sa_layer_norm): LayerNorm((768,), eps=1e-12, elementwise_affine=True)
                  (ffn): FFN(
                    (dropout): Dropout(p=0.1, inplace=False)
                    (lin1): Linear(in_features=768, out_features=3072, bias=True)
                    (lin2): Linear(in_features=3072, out_features=768, bias=True)
                  )
                  (output_layer_norm): LayerNorm((768,), eps=1e-12, elementwise_affine=True)
                )
                (3): TransformerBlock(
                  (attention): MultiHeadSelfAttention(
                    (dropout): Dropout(p=0.1, inplace=False)
                    (q_lin): Linear(in_features=768, out_features=768, bias=True)
                    (k_lin): Linear(in_features=768, out_features=768, bias=True)
                    (v_lin): Linear(in_features=768, out_features=768, bias=True)
                    (out_lin): Linear(in_features=768, out_features=768, bias=True)
                  )
                  (sa_layer_norm): LayerNorm((768,), eps=1e-12, elementwise_affine=True)
                  (ffn): FFN(
                    (dropout): Dropout(p=0.1, inplace=False)
                    (lin1): Linear(in_features=768, out_features=3072, bias=True)
                    (lin2): Linear(in_features=3072, out_features=768, bias=True)
                  )
                  (output_layer_norm): LayerNorm((768,), eps=1e-12, elementwise_affine=True)
                )
                (4): TransformerBlock(
                  (attention): MultiHeadSelfAttention(
                    (dropout): Dropout(p=0.1, inplace=False)
                    (q_lin): Linear(in_features=768, out_features=768, bias=True)
                    (k_lin): Linear(in_features=768, out_features=768, bias=True)
                    (v_lin): Linear(in_features=768, out_features=768, bias=True)
                    (out_lin): Linear(in_features=768, out_features=768, bias=True)
                  )
                  (sa_layer_norm): LayerNorm((768,), eps=1e-12, elementwise_affine=True)
                  (ffn): FFN(
                    (dropout): Dropout(p=0.1, inplace=False)
                    (lin1): Linear(in_features=768, out_features=3072, bias=True)
                    (lin2): Linear(in_features=3072, out_features=768, bias=True)
                  )
                  (output_layer_norm): LayerNorm((768,), eps=1e-12, elementwise_affine=True)
                )
                (5): TransformerBlock(
                  (attention): MultiHeadSelfAttention(
                    (dropout): Dropout(p=0.1, inplace=False)
                    (q_lin): Linear(in_features=768, out_features=768, bias=True)
                    (k_lin): Linear(in_features=768, out_features=768, bias=True)
                    (v_lin): Linear(in_features=768, out_features=768, bias=True)
                    (out_lin): Linear(in_features=768, out_features=768, bias=True)
                  )
                  (sa_layer_norm): LayerNorm((768,), eps=1e-12, elementwise_affine=True)
                  (ffn): FFN(
                    (dropout): Dropout(p=0.1, inplace=False)
                    (lin1): Linear(in_features=768, out_features=3072, bias=True)
                    (lin2): Linear(in_features=3072, out_features=768, bias=True)
                  )
                  (output_layer_norm): LayerNorm((768,), eps=1e-12, elementwise_affine=True)
                )
              )
            )
          )
          (bottle_neck): BottleNeck(
            (features): Sequential(
              (0): AdaptiveMaxPool1d(output_size=192)
            )
          )
        )
        (img_encoder): PreTrainedImg(
          (features): Linear(in_features=768, out_features=768, bias=True)
          (bottle_neck): BottleNeck(
            (features): Sequential(
              (0): AdaptiveMaxPool1d(output_size=192)
            )
          )
        )
        (merge_embds): MergeInstances(
          (features): RTEncoder(
            (layers): ModuleList(
              (0): ReverseTransformerBlock(
                (attented): MultiHeadAtttention(
                  (nheads): 12
                  (plin_q): Linear(in_features=192, out_features=192, bias=True)
                  (plin_k): Linear(in_features=192, out_features=192, bias=True)
                  (plin_v): Linear(in_features=192, out_features=192, bias=True)
                  (attention): QuadraticAttention(
                    (drop): Dropout(p=0.3, inplace=False)
                    (activation): Softmax(dim=-1)
                  )
                  (plin_o): Linear(in_features=192, out_features=192, bias=True)
                  (norm): LayerNorm((192,), eps=1e-05, elementwise_affine=True)
                )
              )
            )
          )
        )
      )
      (cross_encoder): RankInstances(
        (features): RTDecoder(
          (layers): ModuleList(
            (0): ReverseTransformerBlock(
              (attented): MultiHeadAtttention(
                (nheads): 12
                (plin_q): Linear(in_features=192, out_features=192, bias=True)
                (plin_k): Linear(in_features=192, out_features=192, bias=True)
                (plin_v): Linear(in_features=192, out_features=192, bias=True)
                (attention): QuadraticAttention(
                  (drop): Dropout(p=0.3, inplace=False)
                  (activation): Softmax(dim=-1)
                )
                (plin_o): Linear(in_features=192, out_features=192, bias=True)
                (norm): LayerNorm((192,), eps=1e-05, elementwise_affine=True)
              )
            )
          )
        )
      )
      (label_clf): XAttn(
        (features): Embedding(303297, 192, sparse=True)
        (weights): Embedding(303297, 2, sparse=True)
        (activation): Softmax(dim=-1)
      )
    )
  )
)
IMG:images/test.img.bin(keep_k=-1)
TXT:raw_data/test.raw.txt(read_full=True)
/home/cse/phd/anz198717/scratch/XC/data/MM-AmazonTitles-300K/sentencebert/test.txt.seq.memmap
TXT:test.txt.seq.memmap(read_full=True)
/home/cse/phd/anz198717/scratch/XC/data/MM-AmazonTitles-300K/ViT/test.img.vect
IMG:test.img.vect(keep_k=-1)
…
